Files already downloaded and verified
Files already downloaded and verified
Model Architecture:  ComplexConv(
  (conv1): Conv2dLayer(
    (conv): Conv2d(3, 64, kernel_size=(3, 3), stride=(1, 1))
    (batchnorm): BatchNorm2d(64, eps=1e-05, momentum=0.1, affine=True, track_running_stats=True)
  )
  (conv2): Conv2dLayer(
    (conv): Conv2d(64, 128, kernel_size=(3, 3), stride=(1, 1))
    (batchnorm): BatchNorm2d(128, eps=1e-05, momentum=0.1, affine=True, track_running_stats=True)
  )
  (conv3): Conv2dLayer(
    (conv): Conv2d(128, 256, kernel_size=(3, 3), stride=(1, 1))
    (batchnorm): BatchNorm2d(256, eps=1e-05, momentum=0.1, affine=True, track_running_stats=True)
  )
  (pool): AvgPool2d(kernel_size=2, stride=2, padding=0)
  (fc1): GumbelLayer(
    (lin): Linear(in_features=1024, out_features=128, bias=False)
    (batchnorm): BatchNorm1d(128, eps=1e-05, momentum=0.1, affine=True, track_running_stats=True)
  )
  (fc2): GumbelLayer(
    (lin): Linear(in_features=128, out_features=256, bias=False)
    (batchnorm): BatchNorm1d(256, eps=1e-05, momentum=0.1, affine=True, track_running_stats=True)
  )
  (classifier): Linear(in_features=256, out_features=10, bias=False)
)
Using device:  cuda
Train Data Shape:  (50000, 32, 32, 3)
Normalize layer outputs?:  True
Train Epoch: 1 [0/50000 (0%)]	Loss: 2.582777	Temp: 1.000000
Train Epoch: 1 [1280/50000 (3%)]	Loss: 2.233148	Temp: 1.000000
Train Epoch: 1 [2560/50000 (5%)]	Loss: 2.224737	Temp: 1.000000
Train Epoch: 1 [3840/50000 (8%)]	Loss: 2.141012	Temp: 1.000000
Train Epoch: 1 [5120/50000 (10%)]	Loss: 2.159707	Temp: 1.000000
…
