Model Architecture:  BernoulliModel(
  (layers): ModuleList(
    (0): BernoulliLayer(
      (lin): Linear(in_features=784, out_features=100, bias=True)
    )
    (1): BernoulliLayer(
      (lin): Linear(in_features=100, out_features=90, bias=True)
    )
    (2): BernoulliLayer(
      (lin): Linear(in_features=90, out_features=80, bias=True)
    )
    (3): BernoulliLayer(
      (lin): Linear(in_features=80, out_features=70, bias=True)
    )
    (4): BernoulliLayer(
      (lin): Linear(in_features=70, out_features=60, bias=True)
    )
    (5): BernoulliLayer(
      (lin): Linear(in_features=60, out_features=50, bias=True)
    )
    (6): BernoulliLayer(
      (lin): Linear(in_features=50, out_features=40, bias=True)
    )
    (7): BernoulliLayer(
      (lin): Linear(in_features=40, out_features=30, bias=True)
    )
    (8): BernoulliLayer(
      (lin): Linear(in_features=30, out_features=20, bias=True)
    )
    (9): BernoulliLayer(
      (lin): Linear(in_features=20, out_features=10, bias=True)
    )
  )
  (linear_layer): Linear(in_features=10, out_features=10, bias=True)
)
Using device:  cpu
Train Data Shape:  torch.Size([60000, 28, 28])
Test Data Shape:  torch.Size([60000])
Train Epoch: 1 [0/60000 (0%)]	Loss: 2.717831
Train Epoch: 1 [6400/60000 (11%)]	Loss: 2.703584
Train Epoch: 1 [12800/60000 (21%)]	Loss: 2.869667
Train Epoch: 1 [19200/60000 (32%)]	Loss: 2.797136
Train Epoch: 1 [25600/60000 (43%)]	Loss: 2.763829
Train Epoch: 1 [32000/60000 (53%)]	Loss: 2.808609
…
